Model ID: 112

Model: "sequential_9"
_________________________________________________________________
 Layer (type)                Output Shape              Param #   
=================================================================
 dense_54 (Dense)            (None, 60)                540       
                                                                 
 dense_55 (Dense)            (None, 80)                4880      
                                                                 
 dense_56 (Dense)            (None, 80)                6480      
                                                                 
 dense_57 (Dense)            (None, 60)                4860      
                                                                 
 dense_58 (Dense)            (None, 30)                1830      
                                                                 
 dense_59 (Dense)            (None, 3)                 93        
                                                                 
=================================================================
Total params: 18683 (72.98 KB)
Trainable params: 18683 (72.98 KB)
Non-trainable params: 0 (0.00 Byte)
_________________________________________________________________

Layer: dense_54, Activation: relu
Layer: dense_55, Activation: relu
Layer: dense_56, Activation: relu
…
