Model ID: 117

Model: "sequential_14"
_________________________________________________________________
 Layer (type)                Output Shape              Param #   
=================================================================
 dense_84 (Dense)            (None, 60)                540       
                                                                 
 dense_85 (Dense)            (None, 80)                4880      
                                                                 
 dense_86 (Dense)            (None, 80)                6480      
                                                                 
 dense_87 (Dense)            (None, 60)                4860      
                                                                 
 dense_88 (Dense)            (None, 30)                1830      
                                                                 
 dense_89 (Dense)            (None, 3)                 93        
                                                                 
=================================================================
Total params: 18683 (72.98 KB)
Trainable params: 18683 (72.98 KB)
Non-trainable params: 0 (0.00 Byte)
_________________________________________________________________

Layer: dense_84, Activation: swish
Layer: dense_85, Activation: swish
Layer: dense_86, Activation: swish
…
