Model ID: 118

Model: "sequential_15"
_________________________________________________________________
 Layer (type)                Output Shape              Param #   
=================================================================
 dense_90 (Dense)            (None, 60)                540       
                                                                 
 dense_91 (Dense)            (None, 80)                4880      
                                                                 
 dense_92 (Dense)            (None, 80)                6480      
                                                                 
 dense_93 (Dense)            (None, 60)                4860      
                                                                 
 dense_94 (Dense)            (None, 30)                1830      
                                                                 
 dense_95 (Dense)            (None, 3)                 93        
                                                                 
=================================================================
Total params: 18683 (72.98 KB)
Trainable params: 18683 (72.98 KB)
Non-trainable params: 0 (0.00 Byte)
_________________________________________________________________

Layer: dense_90, Activation: hard_sigmoid
Layer: dense_91, Activation: hard_sigmoid
Layer: dense_92, Activation: hard_sigmoid
…
