Model ID: 119

Model: "sequential_16"
_________________________________________________________________
 Layer (type)                Output Shape              Param #   
=================================================================
 dense_96 (Dense)            (None, 60)                540       
                                                                 
 dense_97 (Dense)            (None, 80)                4880      
                                                                 
 dense_98 (Dense)            (None, 80)                6480      
                                                                 
 dense_99 (Dense)            (None, 60)                4860      
                                                                 
 dense_100 (Dense)           (None, 30)                1830      
                                                                 
 dense_101 (Dense)           (None, 3)                 93        
                                                                 
=================================================================
Total params: 18683 (72.98 KB)
Trainable params: 18683 (72.98 KB)
Non-trainable params: 0 (0.00 Byte)
_________________________________________________________________

Layer: dense_96, Activation: gelu
Layer: dense_97, Activation: gelu
Layer: dense_98, Activation: gelu
…
