Model ID: 11

Model: "sequential_8"
_________________________________________________________________
 Layer (type)                Output Shape              Param #   
=================================================================
 dense_48 (Dense)            (None, 60)                540       
                                                                 
 dense_49 (Dense)            (None, 80)                4880      
                                                                 
 dense_50 (Dense)            (None, 80)                6480      
                                                                 
 dense_51 (Dense)            (None, 60)                4860      
                                                                 
 dense_52 (Dense)            (None, 30)                1830      
                                                                 
 dense_53 (Dense)            (None, 3)                 93        
                                                                 
=================================================================
Total params: 18683 (72.98 KB)
Trainable params: 18683 (72.98 KB)
Non-trainable params: 0 (0.00 Byte)
_________________________________________________________________

Layer: dense_48, Activation: elu
Layer: dense_49, Activation: elu
Layer: dense_50, Activation: elu
…
