Model ID: 126

Model: "sequential_23"
_________________________________________________________________
 Layer (type)                Output Shape              Param #   
=================================================================
 dense_138 (Dense)           (None, 60)                540       
                                                                 
 dense_139 (Dense)           (None, 80)                4880      
                                                                 
 dense_140 (Dense)           (None, 80)                6480      
                                                                 
 dense_141 (Dense)           (None, 60)                4860      
                                                                 
 dense_142 (Dense)           (None, 30)                1830      
                                                                 
 dense_143 (Dense)           (None, 3)                 93        
                                                                 
=================================================================
Total params: 18683 (72.98 KB)
Trainable params: 18683 (72.98 KB)
Non-trainable params: 0 (0.00 Byte)
_________________________________________________________________

Layer: dense_138, Activation: swish
Layer: dense_139, Activation: swish
Layer: dense_140, Activation: swish
…
