Model ID: 131

Model: "sequential_28"
_________________________________________________________________
 Layer (type)                Output Shape              Param #   
=================================================================
 dense_168 (Dense)           (None, 60)                540       
                                                                 
 dense_169 (Dense)           (None, 80)                4880      
                                                                 
 dense_170 (Dense)           (None, 80)                6480      
                                                                 
 dense_171 (Dense)           (None, 60)                4860      
                                                                 
 dense_172 (Dense)           (None, 30)                1830      
                                                                 
 dense_173 (Dense)           (None, 3)                 93        
                                                                 
=================================================================
Total params: 18683 (72.98 KB)
Trainable params: 18683 (72.98 KB)
Non-trainable params: 0 (0.00 Byte)
_________________________________________________________________

Layer: dense_168, Activation: selu
Layer: dense_169, Activation: selu
Layer: dense_170, Activation: selu
…
