Model ID: 137

Model: "sequential_34"
_________________________________________________________________
 Layer (type)                Output Shape              Param #   
=================================================================
 dense_204 (Dense)           (None, 60)                540       
                                                                 
 dense_205 (Dense)           (None, 80)                4880      
                                                                 
 dense_206 (Dense)           (None, 80)                6480      
                                                                 
 dense_207 (Dense)           (None, 60)                4860      
                                                                 
 dense_208 (Dense)           (None, 30)                1830      
                                                                 
 dense_209 (Dense)           (None, 3)                 93        
                                                                 
=================================================================
Total params: 18683 (72.98 KB)
Trainable params: 18683 (72.98 KB)
Non-trainable params: 0 (0.00 Byte)
_________________________________________________________________

Layer: dense_204, Activation: gelu
Layer: dense_205, Activation: gelu
Layer: dense_206, Activation: gelu
…
