Model ID: 146

Model: "sequential_43"
_________________________________________________________________
 Layer (type)                Output Shape              Param #   
=================================================================
 dense_258 (Dense)           (None, 60)                540       
                                                                 
 dense_259 (Dense)           (None, 80)                4880      
                                                                 
 dense_260 (Dense)           (None, 80)                6480      
                                                                 
 dense_261 (Dense)           (None, 60)                4860      
                                                                 
 dense_262 (Dense)           (None, 30)                1830      
                                                                 
 dense_263 (Dense)           (None, 3)                 93        
                                                                 
=================================================================
Total params: 18683 (72.98 KB)
Trainable params: 18683 (72.98 KB)
Non-trainable params: 0 (0.00 Byte)
_________________________________________________________________

Layer: dense_258, Activation: gelu
Layer: dense_259, Activation: gelu
Layer: dense_260, Activation: gelu
…
