Model ID: 149

Model: "sequential_46"
_________________________________________________________________
 Layer (type)                Output Shape              Param #   
=================================================================
 dense_276 (Dense)           (None, 60)                540       
                                                                 
 dense_277 (Dense)           (None, 80)                4880      
                                                                 
 dense_278 (Dense)           (None, 80)                6480      
                                                                 
 dense_279 (Dense)           (None, 60)                4860      
                                                                 
 dense_280 (Dense)           (None, 30)                1830      
                                                                 
 dense_281 (Dense)           (None, 3)                 93        
                                                                 
=================================================================
Total params: 18683 (72.98 KB)
Trainable params: 18683 (72.98 KB)
Non-trainable params: 0 (0.00 Byte)
_________________________________________________________________

Layer: dense_276, Activation: selu
Layer: dense_277, Activation: selu
Layer: dense_278, Activation: selu
…
