Model ID: 14

Model: "sequential_11"
_________________________________________________________________
 Layer (type)                Output Shape              Param #   
=================================================================
 dense_66 (Dense)            (None, 60)                540       
                                                                 
 dense_67 (Dense)            (None, 80)                4880      
                                                                 
 dense_68 (Dense)            (None, 80)                6480      
                                                                 
 dense_69 (Dense)            (None, 60)                4860      
                                                                 
 dense_70 (Dense)            (None, 30)                1830      
                                                                 
 dense_71 (Dense)            (None, 3)                 93        
                                                                 
=================================================================
Total params: 18683 (72.98 KB)
Trainable params: 18683 (72.98 KB)
Non-trainable params: 0 (0.00 Byte)
_________________________________________________________________

Layer: dense_66, Activation: tanh
Layer: dense_67, Activation: tanh
Layer: dense_68, Activation: tanh
…
