Model ID: 152

Model: "sequential_49"
_________________________________________________________________
 Layer (type)                Output Shape              Param #   
=================================================================
 dense_294 (Dense)           (None, 60)                540       
                                                                 
 dense_295 (Dense)           (None, 80)                4880      
                                                                 
 dense_296 (Dense)           (None, 80)                6480      
                                                                 
 dense_297 (Dense)           (None, 60)                4860      
                                                                 
 dense_298 (Dense)           (None, 30)                1830      
                                                                 
 dense_299 (Dense)           (None, 3)                 93        
                                                                 
=================================================================
Total params: 18683 (72.98 KB)
Trainable params: 18683 (72.98 KB)
Non-trainable params: 0 (0.00 Byte)
_________________________________________________________________

Layer: dense_294, Activation: softmax
Layer: dense_295, Activation: softmax
Layer: dense_296, Activation: softmax
…
