Model ID: 155

Model: "sequential_52"
_________________________________________________________________
 Layer (type)                Output Shape              Param #   
=================================================================
 dense_312 (Dense)           (None, 60)                540       
                                                                 
 dense_313 (Dense)           (None, 80)                4880      
                                                                 
 dense_314 (Dense)           (None, 80)                6480      
                                                                 
 dense_315 (Dense)           (None, 60)                4860      
                                                                 
 dense_316 (Dense)           (None, 30)                1830      
                                                                 
 dense_317 (Dense)           (None, 3)                 93        
                                                                 
=================================================================
Total params: 18683 (72.98 KB)
Trainable params: 18683 (72.98 KB)
Non-trainable params: 0 (0.00 Byte)
_________________________________________________________________

Layer: dense_312, Activation: gelu
Layer: dense_313, Activation: gelu
Layer: dense_314, Activation: gelu
…
