Model ID: 157

Model: "sequential_5"
_________________________________________________________________
 Layer (type)                Output Shape              Param #   
=================================================================
 dense_30 (Dense)            (None, 60)                540       
                                                                 
 dense_31 (Dense)            (None, 80)                4880      
                                                                 
 dense_32 (Dense)            (None, 80)                6480      
                                                                 
 dense_33 (Dense)            (None, 60)                4860      
                                                                 
 dense_34 (Dense)            (None, 30)                1830      
                                                                 
 dense_35 (Dense)            (None, 3)                 93        
                                                                 
=================================================================
Total params: 18683 (72.98 KB)
Trainable params: 18683 (72.98 KB)
Non-trainable params: 0 (0.00 Byte)
_________________________________________________________________

Layer: dense_30, Activation: swish
Layer: dense_31, Activation: swish
Layer: dense_32, Activation: swish
…
