Model ID: 161

Model: "sequential_58"
_________________________________________________________________
 Layer (type)                Output Shape              Param #   
=================================================================
 dense_348 (Dense)           (None, 60)                540       
                                                                 
 dense_349 (Dense)           (None, 80)                4880      
                                                                 
 dense_350 (Dense)           (None, 80)                6480      
                                                                 
 dense_351 (Dense)           (None, 60)                4860      
                                                                 
 dense_352 (Dense)           (None, 30)                1830      
                                                                 
 dense_353 (Dense)           (None, 3)                 93        
                                                                 
=================================================================
Total params: 18683 (72.98 KB)
Trainable params: 18683 (72.98 KB)
Non-trainable params: 0 (0.00 Byte)
_________________________________________________________________

Layer: dense_348, Activation: softmax
Layer: dense_349, Activation: softmax
Layer: dense_350, Activation: softmax
…
