Model ID: 162

Model: "sequential_10"
_________________________________________________________________
 Layer (type)                Output Shape              Param #   
=================================================================
 dense_60 (Dense)            (None, 60)                540       
                                                                 
 dense_61 (Dense)            (None, 80)                4880      
                                                                 
 dense_62 (Dense)            (None, 80)                6480      
                                                                 
 dense_63 (Dense)            (None, 60)                4860      
                                                                 
 dense_64 (Dense)            (None, 30)                1830      
                                                                 
 dense_65 (Dense)            (None, 3)                 93        
                                                                 
=================================================================
Total params: 18683 (72.98 KB)
Trainable params: 18683 (72.98 KB)
Non-trainable params: 0 (0.00 Byte)
_________________________________________________________________

Layer: dense_60, Activation: sigmoid
Layer: dense_61, Activation: sigmoid
Layer: dense_62, Activation: sigmoid
…
