Model ID: 165

Model: "sequential_13"
_________________________________________________________________
 Layer (type)                Output Shape              Param #   
=================================================================
 dense_78 (Dense)            (None, 60)                540       
                                                                 
 dense_79 (Dense)            (None, 80)                4880      
                                                                 
 dense_80 (Dense)            (None, 80)                6480      
                                                                 
 dense_81 (Dense)            (None, 60)                4860      
                                                                 
 dense_82 (Dense)            (None, 30)                1830      
                                                                 
 dense_83 (Dense)            (None, 3)                 93        
                                                                 
=================================================================
Total params: 18683 (72.98 KB)
Trainable params: 18683 (72.98 KB)
Non-trainable params: 0 (0.00 Byte)
_________________________________________________________________

Layer: dense_78, Activation: hard_sigmoid
Layer: dense_79, Activation: hard_sigmoid
Layer: dense_80, Activation: hard_sigmoid
…
