Model ID: 166

Model: "sequential_63"
_________________________________________________________________
 Layer (type)                Output Shape              Param #   
=================================================================
 dense_378 (Dense)           (None, 60)                540       
                                                                 
 dense_379 (Dense)           (None, 80)                4880      
                                                                 
 dense_380 (Dense)           (None, 80)                6480      
                                                                 
 dense_381 (Dense)           (None, 60)                4860      
                                                                 
 dense_382 (Dense)           (None, 30)                1830      
                                                                 
 dense_383 (Dense)           (None, 3)                 93        
                                                                 
=================================================================
Total params: 18683 (72.98 KB)
Trainable params: 18683 (72.98 KB)
Non-trainable params: 0 (0.00 Byte)
_________________________________________________________________

Layer: dense_378, Activation: relu
Layer: dense_379, Activation: relu
Layer: dense_380, Activation: relu
…
