Model ID: 169

Model: "sequential_17"
_________________________________________________________________
 Layer (type)                Output Shape              Param #   
=================================================================
 dense_102 (Dense)           (None, 60)                540       
                                                                 
 dense_103 (Dense)           (None, 80)                4880      
                                                                 
 dense_104 (Dense)           (None, 80)                6480      
                                                                 
 dense_105 (Dense)           (None, 60)                4860      
                                                                 
 dense_106 (Dense)           (None, 30)                1830      
                                                                 
 dense_107 (Dense)           (None, 3)                 93        
                                                                 
=================================================================
Total params: 18683 (72.98 KB)
Trainable params: 18683 (72.98 KB)
Non-trainable params: 0 (0.00 Byte)
_________________________________________________________________

Layer: dense_102, Activation: sigmoid
Layer: dense_103, Activation: sigmoid
Layer: dense_104, Activation: sigmoid
…
