Model ID: 170

Model: "sequential_67"
_________________________________________________________________
 Layer (type)                Output Shape              Param #   
=================================================================
 dense_402 (Dense)           (None, 60)                540       
                                                                 
 dense_403 (Dense)           (None, 80)                4880      
                                                                 
 dense_404 (Dense)           (None, 80)                6480      
                                                                 
 dense_405 (Dense)           (None, 60)                4860      
                                                                 
 dense_406 (Dense)           (None, 30)                1830      
                                                                 
 dense_407 (Dense)           (None, 3)                 93        
                                                                 
=================================================================
Total params: 18683 (72.98 KB)
Trainable params: 18683 (72.98 KB)
Non-trainable params: 0 (0.00 Byte)
_________________________________________________________________

Layer: dense_402, Activation: softmax
Layer: dense_403, Activation: softmax
Layer: dense_404, Activation: softmax
…
