Model ID: 173

Model: "sequential_21"
_________________________________________________________________
 Layer (type)                Output Shape              Param #   
=================================================================
 dense_126 (Dense)           (None, 60)                540       
                                                                 
 dense_127 (Dense)           (None, 80)                4880      
                                                                 
 dense_128 (Dense)           (None, 80)                6480      
                                                                 
 dense_129 (Dense)           (None, 60)                4860      
                                                                 
 dense_130 (Dense)           (None, 30)                1830      
                                                                 
 dense_131 (Dense)           (None, 3)                 93        
                                                                 
=================================================================
Total params: 18683 (72.98 KB)
Trainable params: 18683 (72.98 KB)
Non-trainable params: 0 (0.00 Byte)
_________________________________________________________________

Layer: dense_126, Activation: relu
Layer: dense_127, Activation: relu
Layer: dense_128, Activation: relu
…
