Model ID: 188

Model: "sequential_36"
_________________________________________________________________
 Layer (type)                Output Shape              Param #   
=================================================================
 dense_216 (Dense)           (None, 60)                540       
                                                                 
 dense_217 (Dense)           (None, 80)                4880      
                                                                 
 dense_218 (Dense)           (None, 80)                6480      
                                                                 
 dense_219 (Dense)           (None, 60)                4860      
                                                                 
 dense_220 (Dense)           (None, 30)                1830      
                                                                 
 dense_221 (Dense)           (None, 3)                 93        
                                                                 
=================================================================
Total params: 18683 (72.98 KB)
Trainable params: 18683 (72.98 KB)
Non-trainable params: 0 (0.00 Byte)
_________________________________________________________________

Layer: dense_216, Activation: selu
Layer: dense_217, Activation: selu
Layer: dense_218, Activation: selu
…
