Model ID: 190

Model: "sequential_38"
_________________________________________________________________
 Layer (type)                Output Shape              Param #   
=================================================================
 dense_228 (Dense)           (None, 60)                540       
                                                                 
 dense_229 (Dense)           (None, 80)                4880      
                                                                 
 dense_230 (Dense)           (None, 80)                6480      
                                                                 
 dense_231 (Dense)           (None, 60)                4860      
                                                                 
 dense_232 (Dense)           (None, 30)                1830      
                                                                 
 dense_233 (Dense)           (None, 3)                 93        
                                                                 
=================================================================
Total params: 18683 (72.98 KB)
Trainable params: 18683 (72.98 KB)
Non-trainable params: 0 (0.00 Byte)
_________________________________________________________________

Layer: dense_228, Activation: sigmoid
Layer: dense_229, Activation: sigmoid
Layer: dense_230, Activation: sigmoid
…
