Model ID: 203

Model: "sequential_2"
_________________________________________________________________
 Layer (type)                Output Shape              Param #   
=================================================================
 dense_12 (Dense)            (None, 60)                540       
                                                                 
 dense_13 (Dense)            (None, 80)                4880      
                                                                 
 dense_14 (Dense)            (None, 80)                6480      
                                                                 
 dense_15 (Dense)            (None, 60)                4860      
                                                                 
 dense_16 (Dense)            (None, 30)                1830      
                                                                 
 dense_17 (Dense)            (None, 3)                 93        
                                                                 
=================================================================
Total params: 18,683
Trainable params: 18,683
Non-trainable params: 0
_________________________________________________________________

Layer: dense_12, Activation: sigmoid
Layer: dense_13, Activation: sigmoid
Layer: dense_14, Activation: sigmoid
Layer: dense_15, Activation: sigmoid
…
