Model ID: 204

Model: "sequential_10"
_________________________________________________________________
 Layer (type)                Output Shape              Param #   
=================================================================
 dense_70 (Dense)            (None, 60)                540       
                                                                 
 dense_71 (Dense)            (None, 80)                4880      
                                                                 
 dense_72 (Dense)            (None, 80)                6480      
                                                                 
 dense_73 (Dense)            (None, 60)                4860      
                                                                 
 dense_74 (Dense)            (None, 60)                3660      
                                                                 
 dense_75 (Dense)            (None, 30)                1830      
                                                                 
 dense_76 (Dense)            (None, 3)                 93        
                                                                 
=================================================================
Total params: 22343 (87.28 KB)
Trainable params: 22343 (87.28 KB)
Non-trainable params: 0 (0.00 Byte)
_________________________________________________________________

Layer: dense_70, Activation: sigmoid
Layer: dense_71, Activation: sigmoid
Layer: dense_72, Activation: sigmoid
…
