Model ID: 208

Model: "sequential_14"
_________________________________________________________________
 Layer (type)                Output Shape              Param #   
=================================================================
 dense_98 (Dense)            (None, 60)                540       
                                                                 
 dense_99 (Dense)            (None, 80)                4880      
                                                                 
 dense_100 (Dense)           (None, 80)                6480      
                                                                 
 dense_101 (Dense)           (None, 60)                4860      
                                                                 
 dense_102 (Dense)           (None, 60)                3660      
                                                                 
 dense_103 (Dense)           (None, 30)                1830      
                                                                 
 dense_104 (Dense)           (None, 3)                 93        
                                                                 
=================================================================
Total params: 22343 (87.28 KB)
Trainable params: 22343 (87.28 KB)
Non-trainable params: 0 (0.00 Byte)
_________________________________________________________________

Layer: dense_98, Activation: relu
Layer: dense_99, Activation: relu
Layer: dense_100, Activation: relu
…
