Model ID: 213

Model: "sequential_19"
_________________________________________________________________
 Layer (type)                Output Shape              Param #   
=================================================================
 dense_133 (Dense)           (None, 60)                540       
                                                                 
 dense_134 (Dense)           (None, 80)                4880      
                                                                 
 dense_135 (Dense)           (None, 80)                6480      
                                                                 
 dense_136 (Dense)           (None, 60)                4860      
                                                                 
 dense_137 (Dense)           (None, 60)                3660      
                                                                 
 dense_138 (Dense)           (None, 30)                1830      
                                                                 
 dense_139 (Dense)           (None, 3)                 93        
                                                                 
=================================================================
Total params: 22343 (87.28 KB)
Trainable params: 22343 (87.28 KB)
Non-trainable params: 0 (0.00 Byte)
_________________________________________________________________

Layer: dense_133, Activation: swish
Layer: dense_134, Activation: swish
Layer: dense_135, Activation: swish
…
