Model ID: 21

Model: "sequential_18"
_________________________________________________________________
 Layer (type)                Output Shape              Param #   
=================================================================
 dense_108 (Dense)           (None, 60)                540       
                                                                 
 dense_109 (Dense)           (None, 80)                4880      
                                                                 
 dense_110 (Dense)           (None, 80)                6480      
                                                                 
 dense_111 (Dense)           (None, 60)                4860      
                                                                 
 dense_112 (Dense)           (None, 30)                1830      
                                                                 
 dense_113 (Dense)           (None, 3)                 93        
                                                                 
=================================================================
Total params: 18683 (72.98 KB)
Trainable params: 18683 (72.98 KB)
Non-trainable params: 0 (0.00 Byte)
_________________________________________________________________

Layer: dense_108, Activation: relu
Layer: dense_109, Activation: relu
Layer: dense_110, Activation: relu
…
