Model ID: 221

Model: "sequential_27"
_________________________________________________________________
 Layer (type)                Output Shape              Param #   
=================================================================
 dense_189 (Dense)           (None, 60)                540       
                                                                 
 dense_190 (Dense)           (None, 80)                4880      
                                                                 
 dense_191 (Dense)           (None, 80)                6480      
                                                                 
 dense_192 (Dense)           (None, 60)                4860      
                                                                 
 dense_193 (Dense)           (None, 60)                3660      
                                                                 
 dense_194 (Dense)           (None, 30)                1830      
                                                                 
 dense_195 (Dense)           (None, 3)                 93        
                                                                 
=================================================================
Total params: 22343 (87.28 KB)
Trainable params: 22343 (87.28 KB)
Non-trainable params: 0 (0.00 Byte)
_________________________________________________________________

Layer: dense_189, Activation: hard_sigmoid
Layer: dense_190, Activation: hard_sigmoid
Layer: dense_191, Activation: hard_sigmoid
…
