Model ID: 226

Model: "sequential_32"
_________________________________________________________________
 Layer (type)                Output Shape              Param #   
=================================================================
 dense_224 (Dense)           (None, 60)                540       
                                                                 
 dense_225 (Dense)           (None, 80)                4880      
                                                                 
 dense_226 (Dense)           (None, 80)                6480      
                                                                 
 dense_227 (Dense)           (None, 60)                4860      
                                                                 
 dense_228 (Dense)           (None, 60)                3660      
                                                                 
 dense_229 (Dense)           (None, 30)                1830      
                                                                 
 dense_230 (Dense)           (None, 3)                 93        
                                                                 
=================================================================
Total params: 22343 (87.28 KB)
Trainable params: 22343 (87.28 KB)
Non-trainable params: 0 (0.00 Byte)
_________________________________________________________________

Layer: dense_224, Activation: softmax
Layer: dense_225, Activation: softmax
Layer: dense_226, Activation: softmax
…
