Model ID: 227

Model: "sequential_33"
_________________________________________________________________
 Layer (type)                Output Shape              Param #   
=================================================================
 dense_231 (Dense)           (None, 60)                540       
                                                                 
 dense_232 (Dense)           (None, 80)                4880      
                                                                 
 dense_233 (Dense)           (None, 80)                6480      
                                                                 
 dense_234 (Dense)           (None, 60)                4860      
                                                                 
 dense_235 (Dense)           (None, 60)                3660      
                                                                 
 dense_236 (Dense)           (None, 30)                1830      
                                                                 
 dense_237 (Dense)           (None, 3)                 93        
                                                                 
=================================================================
Total params: 22343 (87.28 KB)
Trainable params: 22343 (87.28 KB)
Non-trainable params: 0 (0.00 Byte)
_________________________________________________________________

Layer: dense_231, Activation: swish
Layer: dense_232, Activation: swish
Layer: dense_233, Activation: swish
…
