Model ID: 228

Model: "sequential_34"
_________________________________________________________________
 Layer (type)                Output Shape              Param #   
=================================================================
 dense_238 (Dense)           (None, 60)                540       
                                                                 
 dense_239 (Dense)           (None, 80)                4880      
                                                                 
 dense_240 (Dense)           (None, 80)                6480      
                                                                 
 dense_241 (Dense)           (None, 60)                4860      
                                                                 
 dense_242 (Dense)           (None, 60)                3660      
                                                                 
 dense_243 (Dense)           (None, 30)                1830      
                                                                 
 dense_244 (Dense)           (None, 3)                 93        
                                                                 
=================================================================
Total params: 22343 (87.28 KB)
Trainable params: 22343 (87.28 KB)
Non-trainable params: 0 (0.00 Byte)
_________________________________________________________________

Layer: dense_238, Activation: hard_sigmoid
Layer: dense_239, Activation: hard_sigmoid
Layer: dense_240, Activation: hard_sigmoid
…
