Model ID: 22

Model: "sequential_19"
_________________________________________________________________
 Layer (type)                Output Shape              Param #   
=================================================================
 dense_114 (Dense)           (None, 60)                540       
                                                                 
 dense_115 (Dense)           (None, 80)                4880      
                                                                 
 dense_116 (Dense)           (None, 80)                6480      
                                                                 
 dense_117 (Dense)           (None, 60)                4860      
                                                                 
 dense_118 (Dense)           (None, 30)                1830      
                                                                 
 dense_119 (Dense)           (None, 3)                 93        
                                                                 
=================================================================
Total params: 18683 (72.98 KB)
Trainable params: 18683 (72.98 KB)
Non-trainable params: 0 (0.00 Byte)
_________________________________________________________________

Layer: dense_114, Activation: selu
Layer: dense_115, Activation: selu
Layer: dense_116, Activation: selu
…
