Model ID: 231

Model: "sequential_37"
_________________________________________________________________
 Layer (type)                Output Shape              Param #   
=================================================================
 dense_259 (Dense)           (None, 60)                540       
                                                                 
 dense_260 (Dense)           (None, 80)                4880      
                                                                 
 dense_261 (Dense)           (None, 80)                6480      
                                                                 
 dense_262 (Dense)           (None, 60)                4860      
                                                                 
 dense_263 (Dense)           (None, 60)                3660      
                                                                 
 dense_264 (Dense)           (None, 30)                1830      
                                                                 
 dense_265 (Dense)           (None, 3)                 93        
                                                                 
=================================================================
Total params: 22343 (87.28 KB)
Trainable params: 22343 (87.28 KB)
Non-trainable params: 0 (0.00 Byte)
_________________________________________________________________

Layer: dense_259, Activation: tanh
Layer: dense_260, Activation: tanh
Layer: dense_261, Activation: tanh
…
