Model ID: 235

Model: "sequential_41"
_________________________________________________________________
 Layer (type)                Output Shape              Param #   
=================================================================
 dense_287 (Dense)           (None, 60)                540       
                                                                 
 dense_288 (Dense)           (None, 80)                4880      
                                                                 
 dense_289 (Dense)           (None, 80)                6480      
                                                                 
 dense_290 (Dense)           (None, 60)                4860      
                                                                 
 dense_291 (Dense)           (None, 60)                3660      
                                                                 
 dense_292 (Dense)           (None, 30)                1830      
                                                                 
 dense_293 (Dense)           (None, 3)                 93        
                                                                 
=================================================================
Total params: 22343 (87.28 KB)
Trainable params: 22343 (87.28 KB)
Non-trainable params: 0 (0.00 Byte)
_________________________________________________________________

Layer: dense_287, Activation: hard_sigmoid
Layer: dense_288, Activation: hard_sigmoid
Layer: dense_289, Activation: hard_sigmoid
…
