Model ID: 236

Model: "sequential_42"
_________________________________________________________________
 Layer (type)                Output Shape              Param #   
=================================================================
 dense_294 (Dense)           (None, 60)                540       
                                                                 
 dense_295 (Dense)           (None, 80)                4880      
                                                                 
 dense_296 (Dense)           (None, 80)                6480      
                                                                 
 dense_297 (Dense)           (None, 60)                4860      
                                                                 
 dense_298 (Dense)           (None, 60)                3660      
                                                                 
 dense_299 (Dense)           (None, 30)                1830      
                                                                 
 dense_300 (Dense)           (None, 3)                 93        
                                                                 
=================================================================
Total params: 22343 (87.28 KB)
Trainable params: 22343 (87.28 KB)
Non-trainable params: 0 (0.00 Byte)
_________________________________________________________________

Layer: dense_294, Activation: relu
Layer: dense_295, Activation: relu
Layer: dense_296, Activation: relu
…
