Model ID: 237

Model: "sequential_43"
_________________________________________________________________
 Layer (type)                Output Shape              Param #   
=================================================================
 dense_301 (Dense)           (None, 60)                540       
                                                                 
 dense_302 (Dense)           (None, 80)                4880      
                                                                 
 dense_303 (Dense)           (None, 80)                6480      
                                                                 
 dense_304 (Dense)           (None, 60)                4860      
                                                                 
 dense_305 (Dense)           (None, 60)                3660      
                                                                 
 dense_306 (Dense)           (None, 30)                1830      
                                                                 
 dense_307 (Dense)           (None, 3)                 93        
                                                                 
=================================================================
Total params: 22343 (87.28 KB)
Trainable params: 22343 (87.28 KB)
Non-trainable params: 0 (0.00 Byte)
_________________________________________________________________

Layer: dense_301, Activation: selu
Layer: dense_302, Activation: selu
Layer: dense_303, Activation: selu
…
