Model ID: 243

Model: "sequential_49"
_________________________________________________________________
 Layer (type)                Output Shape              Param #   
=================================================================
 dense_343 (Dense)           (None, 60)                540       
                                                                 
 dense_344 (Dense)           (None, 80)                4880      
                                                                 
 dense_345 (Dense)           (None, 80)                6480      
                                                                 
 dense_346 (Dense)           (None, 60)                4860      
                                                                 
 dense_347 (Dense)           (None, 60)                3660      
                                                                 
 dense_348 (Dense)           (None, 30)                1830      
                                                                 
 dense_349 (Dense)           (None, 3)                 93        
                                                                 
=================================================================
Total params: 22343 (87.28 KB)
Trainable params: 22343 (87.28 KB)
Non-trainable params: 0 (0.00 Byte)
_________________________________________________________________

Layer: dense_343, Activation: relu
Layer: dense_344, Activation: relu
Layer: dense_345, Activation: relu
…
