Model ID: 245

Model: "sequential_51"
_________________________________________________________________
 Layer (type)                Output Shape              Param #   
=================================================================
 dense_357 (Dense)           (None, 60)                540       
                                                                 
 dense_358 (Dense)           (None, 80)                4880      
                                                                 
 dense_359 (Dense)           (None, 80)                6480      
                                                                 
 dense_360 (Dense)           (None, 60)                4860      
                                                                 
 dense_361 (Dense)           (None, 60)                3660      
                                                                 
 dense_362 (Dense)           (None, 30)                1830      
                                                                 
 dense_363 (Dense)           (None, 3)                 93        
                                                                 
=================================================================
Total params: 22343 (87.28 KB)
Trainable params: 22343 (87.28 KB)
Non-trainable params: 0 (0.00 Byte)
_________________________________________________________________

Layer: dense_357, Activation: tanh
Layer: dense_358, Activation: tanh
Layer: dense_359, Activation: tanh
…
