Model ID: 246

Model: "sequential_52"
_________________________________________________________________
 Layer (type)                Output Shape              Param #   
=================================================================
 dense_364 (Dense)           (None, 60)                540       
                                                                 
 dense_365 (Dense)           (None, 80)                4880      
                                                                 
 dense_366 (Dense)           (None, 80)                6480      
                                                                 
 dense_367 (Dense)           (None, 60)                4860      
                                                                 
 dense_368 (Dense)           (None, 60)                3660      
                                                                 
 dense_369 (Dense)           (None, 30)                1830      
                                                                 
 dense_370 (Dense)           (None, 3)                 93        
                                                                 
=================================================================
Total params: 22343 (87.28 KB)
Trainable params: 22343 (87.28 KB)
Non-trainable params: 0 (0.00 Byte)
_________________________________________________________________

Layer: dense_364, Activation: sigmoid
Layer: dense_365, Activation: sigmoid
Layer: dense_366, Activation: sigmoid
…
