Model ID: 247

Model: "sequential_53"
_________________________________________________________________
 Layer (type)                Output Shape              Param #   
=================================================================
 dense_371 (Dense)           (None, 60)                540       
                                                                 
 dense_372 (Dense)           (None, 80)                4880      
                                                                 
 dense_373 (Dense)           (None, 80)                6480      
                                                                 
 dense_374 (Dense)           (None, 60)                4860      
                                                                 
 dense_375 (Dense)           (None, 60)                3660      
                                                                 
 dense_376 (Dense)           (None, 30)                1830      
                                                                 
 dense_377 (Dense)           (None, 3)                 93        
                                                                 
=================================================================
Total params: 22343 (87.28 KB)
Trainable params: 22343 (87.28 KB)
Non-trainable params: 0 (0.00 Byte)
_________________________________________________________________

Layer: dense_371, Activation: softmax
Layer: dense_372, Activation: softmax
Layer: dense_373, Activation: softmax
…
