Model ID: 251

Model: "sequential_57"
_________________________________________________________________
 Layer (type)                Output Shape              Param #   
=================================================================
 dense_399 (Dense)           (None, 60)                540       
                                                                 
 dense_400 (Dense)           (None, 80)                4880      
                                                                 
 dense_401 (Dense)           (None, 80)                6480      
                                                                 
 dense_402 (Dense)           (None, 60)                4860      
                                                                 
 dense_403 (Dense)           (None, 60)                3660      
                                                                 
 dense_404 (Dense)           (None, 30)                1830      
                                                                 
 dense_405 (Dense)           (None, 3)                 93        
                                                                 
=================================================================
Total params: 22343 (87.28 KB)
Trainable params: 22343 (87.28 KB)
Non-trainable params: 0 (0.00 Byte)
_________________________________________________________________

Layer: dense_399, Activation: selu
Layer: dense_400, Activation: selu
Layer: dense_401, Activation: selu
…
