Model ID: 257

Model: "sequential_63"
_________________________________________________________________
 Layer (type)                Output Shape              Param #   
=================================================================
 dense_441 (Dense)           (None, 60)                540       
                                                                 
 dense_442 (Dense)           (None, 80)                4880      
                                                                 
 dense_443 (Dense)           (None, 80)                6480      
                                                                 
 dense_444 (Dense)           (None, 60)                4860      
                                                                 
 dense_445 (Dense)           (None, 60)                3660      
                                                                 
 dense_446 (Dense)           (None, 30)                1830      
                                                                 
 dense_447 (Dense)           (None, 3)                 93        
                                                                 
=================================================================
Total params: 22343 (87.28 KB)
Trainable params: 22343 (87.28 KB)
Non-trainable params: 0 (0.00 Byte)
_________________________________________________________________

Layer: dense_441, Activation: relu
Layer: dense_442, Activation: relu
Layer: dense_443, Activation: relu
…
