Model ID: 258

Model: "sequential_64"
_________________________________________________________________
 Layer (type)                Output Shape              Param #   
=================================================================
 dense_448 (Dense)           (None, 60)                540       
                                                                 
 dense_449 (Dense)           (None, 80)                4880      
                                                                 
 dense_450 (Dense)           (None, 80)                6480      
                                                                 
 dense_451 (Dense)           (None, 60)                4860      
                                                                 
 dense_452 (Dense)           (None, 60)                3660      
                                                                 
 dense_453 (Dense)           (None, 30)                1830      
                                                                 
 dense_454 (Dense)           (None, 3)                 93        
                                                                 
=================================================================
Total params: 22343 (87.28 KB)
Trainable params: 22343 (87.28 KB)
Non-trainable params: 0 (0.00 Byte)
_________________________________________________________________

Layer: dense_448, Activation: selu
Layer: dense_449, Activation: selu
Layer: dense_450, Activation: selu
…
