Model ID: 262

Model: "sequential_68"
_________________________________________________________________
 Layer (type)                Output Shape              Param #   
=================================================================
 dense_476 (Dense)           (None, 60)                540       
                                                                 
 dense_477 (Dense)           (None, 80)                4880      
                                                                 
 dense_478 (Dense)           (None, 80)                6480      
                                                                 
 dense_479 (Dense)           (None, 60)                4860      
                                                                 
 dense_480 (Dense)           (None, 60)                3660      
                                                                 
 dense_481 (Dense)           (None, 30)                1830      
                                                                 
 dense_482 (Dense)           (None, 3)                 93        
                                                                 
=================================================================
Total params: 22343 (87.28 KB)
Trainable params: 22343 (87.28 KB)
Non-trainable params: 0 (0.00 Byte)
_________________________________________________________________

Layer: dense_476, Activation: swish
Layer: dense_477, Activation: swish
Layer: dense_478, Activation: swish
…
