Model ID: 263

Model: "sequential_69"
_________________________________________________________________
 Layer (type)                Output Shape              Param #   
=================================================================
 dense_483 (Dense)           (None, 60)                540       
                                                                 
 dense_484 (Dense)           (None, 80)                4880      
                                                                 
 dense_485 (Dense)           (None, 80)                6480      
                                                                 
 dense_486 (Dense)           (None, 60)                4860      
                                                                 
 dense_487 (Dense)           (None, 60)                3660      
                                                                 
 dense_488 (Dense)           (None, 30)                1830      
                                                                 
 dense_489 (Dense)           (None, 3)                 93        
                                                                 
=================================================================
Total params: 22343 (87.28 KB)
Trainable params: 22343 (87.28 KB)
Non-trainable params: 0 (0.00 Byte)
_________________________________________________________________

Layer: dense_483, Activation: hard_sigmoid
Layer: dense_484, Activation: hard_sigmoid
Layer: dense_485, Activation: hard_sigmoid
…
