Model ID: 264

Model: "sequential"
_________________________________________________________________
 Layer (type)                Output Shape              Param #   
=================================================================
 dense (Dense)               (None, 60)                540       
                                                                 
 dense_1 (Dense)             (None, 80)                4880      
                                                                 
 dense_2 (Dense)             (None, 60)                4860      
                                                                 
 dense_3 (Dense)             (None, 30)                1830      
                                                                 
 dense_4 (Dense)             (None, 3)                 93        
                                                                 
=================================================================
Total params: 12203 (47.67 KB)
Trainable params: 12203 (47.67 KB)
Non-trainable params: 0 (0.00 Byte)
_________________________________________________________________

Layer: dense, Activation: relu
Layer: dense_1, Activation: relu
Layer: dense_2, Activation: relu
…
