Model ID: 266

Model: "sequential_2"
_________________________________________________________________
 Layer (type)                Output Shape              Param #   
=================================================================
 dense_10 (Dense)            (None, 60)                540       
                                                                 
 dense_11 (Dense)            (None, 80)                4880      
                                                                 
 dense_12 (Dense)            (None, 60)                4860      
                                                                 
 dense_13 (Dense)            (None, 30)                1830      
                                                                 
 dense_14 (Dense)            (None, 3)                 93        
                                                                 
=================================================================
Total params: 12203 (47.67 KB)
Trainable params: 12203 (47.67 KB)
Non-trainable params: 0 (0.00 Byte)
_________________________________________________________________

Layer: dense_10, Activation: tanh
Layer: dense_11, Activation: tanh
Layer: dense_12, Activation: tanh
…
