Model ID: 267

Model: "sequential_3"
_________________________________________________________________
 Layer (type)                Output Shape              Param #   
=================================================================
 dense_15 (Dense)            (None, 60)                540       
                                                                 
 dense_16 (Dense)            (None, 80)                4880      
                                                                 
 dense_17 (Dense)            (None, 60)                4860      
                                                                 
 dense_18 (Dense)            (None, 30)                1830      
                                                                 
 dense_19 (Dense)            (None, 3)                 93        
                                                                 
=================================================================
Total params: 12203 (47.67 KB)
Trainable params: 12203 (47.67 KB)
Non-trainable params: 0 (0.00 Byte)
_________________________________________________________________

Layer: dense_15, Activation: sigmoid
Layer: dense_16, Activation: sigmoid
Layer: dense_17, Activation: sigmoid
…
