Model ID: 268

Model: "sequential_4"
_________________________________________________________________
 Layer (type)                Output Shape              Param #   
=================================================================
 dense_20 (Dense)            (None, 60)                540       
                                                                 
 dense_21 (Dense)            (None, 80)                4880      
                                                                 
 dense_22 (Dense)            (None, 60)                4860      
                                                                 
 dense_23 (Dense)            (None, 30)                1830      
                                                                 
 dense_24 (Dense)            (None, 3)                 93        
                                                                 
=================================================================
Total params: 12203 (47.67 KB)
Trainable params: 12203 (47.67 KB)
Non-trainable params: 0 (0.00 Byte)
_________________________________________________________________

Layer: dense_20, Activation: softmax
Layer: dense_21, Activation: softmax
Layer: dense_22, Activation: softmax
…
