Model ID: 271

Model: "sequential_7"
_________________________________________________________________
 Layer (type)                Output Shape              Param #   
=================================================================
 dense_35 (Dense)            (None, 60)                540       
                                                                 
 dense_36 (Dense)            (None, 80)                4880      
                                                                 
 dense_37 (Dense)            (None, 60)                4860      
                                                                 
 dense_38 (Dense)            (None, 30)                1830      
                                                                 
 dense_39 (Dense)            (None, 3)                 93        
                                                                 
=================================================================
Total params: 12203 (47.67 KB)
Trainable params: 12203 (47.67 KB)
Non-trainable params: 0 (0.00 Byte)
_________________________________________________________________

Layer: dense_35, Activation: relu
Layer: dense_36, Activation: relu
Layer: dense_37, Activation: relu
…
