Model ID: 272

Model: "sequential_8"
_________________________________________________________________
 Layer (type)                Output Shape              Param #   
=================================================================
 dense_40 (Dense)            (None, 60)                540       
                                                                 
 dense_41 (Dense)            (None, 80)                4880      
                                                                 
 dense_42 (Dense)            (None, 60)                4860      
                                                                 
 dense_43 (Dense)            (None, 30)                1830      
                                                                 
 dense_44 (Dense)            (None, 3)                 93        
                                                                 
=================================================================
Total params: 12203 (47.67 KB)
Trainable params: 12203 (47.67 KB)
Non-trainable params: 0 (0.00 Byte)
_________________________________________________________________

Layer: dense_40, Activation: selu
Layer: dense_41, Activation: selu
Layer: dense_42, Activation: selu
…
