Model ID: 277

Model: "sequential_13"
_________________________________________________________________
 Layer (type)                Output Shape              Param #   
=================================================================
 dense_65 (Dense)            (None, 60)                540       
                                                                 
 dense_66 (Dense)            (None, 80)                4880      
                                                                 
 dense_67 (Dense)            (None, 60)                4860      
                                                                 
 dense_68 (Dense)            (None, 30)                1830      
                                                                 
 dense_69 (Dense)            (None, 3)                 93        
                                                                 
=================================================================
Total params: 12203 (47.67 KB)
Trainable params: 12203 (47.67 KB)
Non-trainable params: 0 (0.00 Byte)
_________________________________________________________________

Layer: dense_65, Activation: hard_sigmoid
Layer: dense_66, Activation: hard_sigmoid
Layer: dense_67, Activation: hard_sigmoid
…
