Model ID: 283

Model: "sequential_19"
_________________________________________________________________
 Layer (type)                Output Shape              Param #   
=================================================================
 dense_95 (Dense)            (None, 60)                540       
                                                                 
 dense_96 (Dense)            (None, 80)                4880      
                                                                 
 dense_97 (Dense)            (None, 60)                4860      
                                                                 
 dense_98 (Dense)            (None, 30)                1830      
                                                                 
 dense_99 (Dense)            (None, 3)                 93        
                                                                 
=================================================================
Total params: 12203 (47.67 KB)
Trainable params: 12203 (47.67 KB)
Non-trainable params: 0 (0.00 Byte)
_________________________________________________________________

Layer: dense_95, Activation: swish
Layer: dense_96, Activation: swish
Layer: dense_97, Activation: swish
…
