Model ID: 28

Model: "sequential_25"
_________________________________________________________________
 Layer (type)                Output Shape              Param #   
=================================================================
 dense_150 (Dense)           (None, 60)                540       
                                                                 
 dense_151 (Dense)           (None, 80)                4880      
                                                                 
 dense_152 (Dense)           (None, 80)                6480      
                                                                 
 dense_153 (Dense)           (None, 60)                4860      
                                                                 
 dense_154 (Dense)           (None, 30)                1830      
                                                                 
 dense_155 (Dense)           (None, 3)                 93        
                                                                 
=================================================================
Total params: 18683 (72.98 KB)
Trainable params: 18683 (72.98 KB)
Non-trainable params: 0 (0.00 Byte)
_________________________________________________________________

Layer: dense_150, Activation: gelu
Layer: dense_151, Activation: gelu
Layer: dense_152, Activation: gelu
…
