Model ID: 296

Model: "sequential_32"
_________________________________________________________________
 Layer (type)                Output Shape              Param #   
=================================================================
 dense_160 (Dense)           (None, 60)                540       
                                                                 
 dense_161 (Dense)           (None, 80)                4880      
                                                                 
 dense_162 (Dense)           (None, 60)                4860      
                                                                 
 dense_163 (Dense)           (None, 30)                1830      
                                                                 
 dense_164 (Dense)           (None, 3)                 93        
                                                                 
=================================================================
Total params: 12203 (47.67 KB)
Trainable params: 12203 (47.67 KB)
Non-trainable params: 0 (0.00 Byte)
_________________________________________________________________

Layer: dense_160, Activation: softmax
Layer: dense_161, Activation: softmax
Layer: dense_162, Activation: softmax
…
