Model ID: 297

Model: "sequential_33"
_________________________________________________________________
 Layer (type)                Output Shape              Param #   
=================================================================
 dense_165 (Dense)           (None, 60)                540       
                                                                 
 dense_166 (Dense)           (None, 80)                4880      
                                                                 
 dense_167 (Dense)           (None, 60)                4860      
                                                                 
 dense_168 (Dense)           (None, 30)                1830      
                                                                 
 dense_169 (Dense)           (None, 3)                 93        
                                                                 
=================================================================
Total params: 12203 (47.67 KB)
Trainable params: 12203 (47.67 KB)
Non-trainable params: 0 (0.00 Byte)
_________________________________________________________________

Layer: dense_165, Activation: swish
Layer: dense_166, Activation: swish
Layer: dense_167, Activation: swish
…
