Model ID: 298

Model: "sequential_34"
_________________________________________________________________
 Layer (type)                Output Shape              Param #   
=================================================================
 dense_170 (Dense)           (None, 60)                540       
                                                                 
 dense_171 (Dense)           (None, 80)                4880      
                                                                 
 dense_172 (Dense)           (None, 60)                4860      
                                                                 
 dense_173 (Dense)           (None, 30)                1830      
                                                                 
 dense_174 (Dense)           (None, 3)                 93        
                                                                 
=================================================================
Total params: 12203 (47.67 KB)
Trainable params: 12203 (47.67 KB)
Non-trainable params: 0 (0.00 Byte)
_________________________________________________________________

Layer: dense_170, Activation: hard_sigmoid
Layer: dense_171, Activation: hard_sigmoid
Layer: dense_172, Activation: hard_sigmoid
…
