Model ID: 301

Model: "sequential_2"
_________________________________________________________________
 Layer (type)                Output Shape              Param #   
=================================================================
 dense_12 (Dense)            (None, 30)                270       
                                                                 
 dense_13 (Dense)            (None, 80)                2480      
                                                                 
 dense_14 (Dense)            (None, 60)                4860      
                                                                 
 dense_15 (Dense)            (None, 80)                4880      
                                                                 
 dense_16 (Dense)            (None, 30)                2430      
                                                                 
 dense_17 (Dense)            (None, 3)                 93        
                                                                 
=================================================================
Total params: 15013 (58.64 KB)
Trainable params: 15013 (58.64 KB)
Non-trainable params: 0 (0.00 Byte)
_________________________________________________________________

Layer: dense_12, Activation: tanh
Layer: dense_13, Activation: tanh
Layer: dense_14, Activation: tanh
…
