Model ID: 309

Model: "sequential_10"
_________________________________________________________________
 Layer (type)                Output Shape              Param #   
=================================================================
 dense_60 (Dense)            (None, 30)                270       
                                                                 
 dense_61 (Dense)            (None, 80)                2480      
                                                                 
 dense_62 (Dense)            (None, 60)                4860      
                                                                 
 dense_63 (Dense)            (None, 80)                4880      
                                                                 
 dense_64 (Dense)            (None, 30)                2430      
                                                                 
 dense_65 (Dense)            (None, 3)                 93        
                                                                 
=================================================================
Total params: 15013 (58.64 KB)
Trainable params: 15013 (58.64 KB)
Non-trainable params: 0 (0.00 Byte)
_________________________________________________________________

Layer: dense_60, Activation: sigmoid
Layer: dense_61, Activation: sigmoid
Layer: dense_62, Activation: sigmoid
…
