Model ID: 311

Model: "sequential_12"
_________________________________________________________________
 Layer (type)                Output Shape              Param #   
=================================================================
 dense_72 (Dense)            (None, 30)                270       
                                                                 
 dense_73 (Dense)            (None, 80)                2480      
                                                                 
 dense_74 (Dense)            (None, 60)                4860      
                                                                 
 dense_75 (Dense)            (None, 80)                4880      
                                                                 
 dense_76 (Dense)            (None, 30)                2430      
                                                                 
 dense_77 (Dense)            (None, 3)                 93        
                                                                 
=================================================================
Total params: 15013 (58.64 KB)
Trainable params: 15013 (58.64 KB)
Non-trainable params: 0 (0.00 Byte)
_________________________________________________________________

Layer: dense_72, Activation: swish
Layer: dense_73, Activation: swish
Layer: dense_74, Activation: swish
…
