Model ID: 312

Model: "sequential_13"
_________________________________________________________________
 Layer (type)                Output Shape              Param #   
=================================================================
 dense_78 (Dense)            (None, 30)                270       
                                                                 
 dense_79 (Dense)            (None, 80)                2480      
                                                                 
 dense_80 (Dense)            (None, 60)                4860      
                                                                 
 dense_81 (Dense)            (None, 80)                4880      
                                                                 
 dense_82 (Dense)            (None, 30)                2430      
                                                                 
 dense_83 (Dense)            (None, 3)                 93        
                                                                 
=================================================================
Total params: 15013 (58.64 KB)
Trainable params: 15013 (58.64 KB)
Non-trainable params: 0 (0.00 Byte)
_________________________________________________________________

Layer: dense_78, Activation: hard_sigmoid
Layer: dense_79, Activation: hard_sigmoid
Layer: dense_80, Activation: hard_sigmoid
…
