Model ID: 315

Model: "sequential_16"
_________________________________________________________________
 Layer (type)                Output Shape              Param #   
=================================================================
 dense_96 (Dense)            (None, 30)                270       
                                                                 
 dense_97 (Dense)            (None, 80)                2480      
                                                                 
 dense_98 (Dense)            (None, 60)                4860      
                                                                 
 dense_99 (Dense)            (None, 80)                4880      
                                                                 
 dense_100 (Dense)           (None, 30)                2430      
                                                                 
 dense_101 (Dense)           (None, 3)                 93        
                                                                 
=================================================================
Total params: 15013 (58.64 KB)
Trainable params: 15013 (58.64 KB)
Non-trainable params: 0 (0.00 Byte)
_________________________________________________________________

Layer: dense_96, Activation: tanh
Layer: dense_97, Activation: tanh
Layer: dense_98, Activation: tanh
…
