Model ID: 316

Model: "sequential_17"
_________________________________________________________________
 Layer (type)                Output Shape              Param #   
=================================================================
 dense_102 (Dense)           (None, 30)                270       
                                                                 
 dense_103 (Dense)           (None, 80)                2480      
                                                                 
 dense_104 (Dense)           (None, 60)                4860      
                                                                 
 dense_105 (Dense)           (None, 80)                4880      
                                                                 
 dense_106 (Dense)           (None, 30)                2430      
                                                                 
 dense_107 (Dense)           (None, 3)                 93        
                                                                 
=================================================================
Total params: 15013 (58.64 KB)
Trainable params: 15013 (58.64 KB)
Non-trainable params: 0 (0.00 Byte)
_________________________________________________________________

Layer: dense_102, Activation: sigmoid
Layer: dense_103, Activation: sigmoid
Layer: dense_104, Activation: sigmoid
…
