Model ID: 324

Model: "sequential_25"
_________________________________________________________________
 Layer (type)                Output Shape              Param #   
=================================================================
 dense_150 (Dense)           (None, 30)                270       
                                                                 
 dense_151 (Dense)           (None, 80)                2480      
                                                                 
 dense_152 (Dense)           (None, 60)                4860      
                                                                 
 dense_153 (Dense)           (None, 80)                4880      
                                                                 
 dense_154 (Dense)           (None, 30)                2430      
                                                                 
 dense_155 (Dense)           (None, 3)                 93        
                                                                 
=================================================================
Total params: 15013 (58.64 KB)
Trainable params: 15013 (58.64 KB)
Non-trainable params: 0 (0.00 Byte)
_________________________________________________________________

Layer: dense_150, Activation: softmax
Layer: dense_151, Activation: softmax
Layer: dense_152, Activation: softmax
…
