Model ID: 326

Model: "sequential_27"
_________________________________________________________________
 Layer (type)                Output Shape              Param #   
=================================================================
 dense_162 (Dense)           (None, 30)                270       
                                                                 
 dense_163 (Dense)           (None, 80)                2480      
                                                                 
 dense_164 (Dense)           (None, 60)                4860      
                                                                 
 dense_165 (Dense)           (None, 80)                4880      
                                                                 
 dense_166 (Dense)           (None, 30)                2430      
                                                                 
 dense_167 (Dense)           (None, 3)                 93        
                                                                 
=================================================================
Total params: 15013 (58.64 KB)
Trainable params: 15013 (58.64 KB)
Non-trainable params: 0 (0.00 Byte)
_________________________________________________________________

Layer: dense_162, Activation: hard_sigmoid
Layer: dense_163, Activation: hard_sigmoid
Layer: dense_164, Activation: hard_sigmoid
…
