Model ID: 327

Model: "sequential_28"
_________________________________________________________________
 Layer (type)                Output Shape              Param #   
=================================================================
 dense_168 (Dense)           (None, 30)                270       
                                                                 
 dense_169 (Dense)           (None, 80)                2480      
                                                                 
 dense_170 (Dense)           (None, 60)                4860      
                                                                 
 dense_171 (Dense)           (None, 80)                4880      
                                                                 
 dense_172 (Dense)           (None, 30)                2430      
                                                                 
 dense_173 (Dense)           (None, 3)                 93        
                                                                 
=================================================================
Total params: 15013 (58.64 KB)
Trainable params: 15013 (58.64 KB)
Non-trainable params: 0 (0.00 Byte)
_________________________________________________________________

Layer: dense_168, Activation: relu
Layer: dense_169, Activation: relu
Layer: dense_170, Activation: relu
…
