Model ID: 328

Model: "sequential_29"
_________________________________________________________________
 Layer (type)                Output Shape              Param #   
=================================================================
 dense_174 (Dense)           (None, 30)                270       
                                                                 
 dense_175 (Dense)           (None, 80)                2480      
                                                                 
 dense_176 (Dense)           (None, 60)                4860      
                                                                 
 dense_177 (Dense)           (None, 80)                4880      
                                                                 
 dense_178 (Dense)           (None, 30)                2430      
                                                                 
 dense_179 (Dense)           (None, 3)                 93        
                                                                 
=================================================================
Total params: 15013 (58.64 KB)
Trainable params: 15013 (58.64 KB)
Non-trainable params: 0 (0.00 Byte)
_________________________________________________________________

Layer: dense_174, Activation: selu
Layer: dense_175, Activation: selu
Layer: dense_176, Activation: selu
…
