Model ID: 329

Model: "sequential_30"
_________________________________________________________________
 Layer (type)                Output Shape              Param #   
=================================================================
 dense_180 (Dense)           (None, 30)                270       
                                                                 
 dense_181 (Dense)           (None, 80)                2480      
                                                                 
 dense_182 (Dense)           (None, 60)                4860      
                                                                 
 dense_183 (Dense)           (None, 80)                4880      
                                                                 
 dense_184 (Dense)           (None, 30)                2430      
                                                                 
 dense_185 (Dense)           (None, 3)                 93        
                                                                 
=================================================================
Total params: 15013 (58.64 KB)
Trainable params: 15013 (58.64 KB)
Non-trainable params: 0 (0.00 Byte)
_________________________________________________________________

Layer: dense_180, Activation: tanh
Layer: dense_181, Activation: tanh
Layer: dense_182, Activation: tanh
…
