Model ID: 330

Model: "sequential_31"
_________________________________________________________________
 Layer (type)                Output Shape              Param #   
=================================================================
 dense_186 (Dense)           (None, 30)                270       
                                                                 
 dense_187 (Dense)           (None, 80)                2480      
                                                                 
 dense_188 (Dense)           (None, 60)                4860      
                                                                 
 dense_189 (Dense)           (None, 80)                4880      
                                                                 
 dense_190 (Dense)           (None, 30)                2430      
                                                                 
 dense_191 (Dense)           (None, 3)                 93        
                                                                 
=================================================================
Total params: 15013 (58.64 KB)
Trainable params: 15013 (58.64 KB)
Non-trainable params: 0 (0.00 Byte)
_________________________________________________________________

Layer: dense_186, Activation: sigmoid
Layer: dense_187, Activation: sigmoid
Layer: dense_188, Activation: sigmoid
…
