Model ID: 332

Model: "sequential_33"
_________________________________________________________________
 Layer (type)                Output Shape              Param #   
=================================================================
 dense_198 (Dense)           (None, 30)                270       
                                                                 
 dense_199 (Dense)           (None, 80)                2480      
                                                                 
 dense_200 (Dense)           (None, 60)                4860      
                                                                 
 dense_201 (Dense)           (None, 80)                4880      
                                                                 
 dense_202 (Dense)           (None, 30)                2430      
                                                                 
 dense_203 (Dense)           (None, 3)                 93        
                                                                 
=================================================================
Total params: 15013 (58.64 KB)
Trainable params: 15013 (58.64 KB)
Non-trainable params: 0 (0.00 Byte)
_________________________________________________________________

Layer: dense_198, Activation: swish
Layer: dense_199, Activation: swish
Layer: dense_200, Activation: swish
…
