Model ID: 343

Model: "sequential_5"
_________________________________________________________________
 Layer (type)                Output Shape              Param #   
=================================================================
 dense_30 (Dense)            (None, 30)                270       
                                                                 
 dense_31 (Dense)            (None, 80)                2480      
                                                                 
 dense_32 (Dense)            (None, 60)                4860      
                                                                 
 dense_33 (Dense)            (None, 80)                4880      
                                                                 
 dense_34 (Dense)            (None, 30)                2430      
                                                                 
 dense_35 (Dense)            (None, 3)                 93        
                                                                 
=================================================================
Total params: 15013 (58.64 KB)
Trainable params: 15013 (58.64 KB)
Non-trainable params: 0 (0.00 Byte)
_________________________________________________________________

Layer: dense_30, Activation: softmax
Layer: dense_31, Activation: softmax
Layer: dense_32, Activation: softmax
…
