Model ID: 344

Model: "sequential_6"
_________________________________________________________________
 Layer (type)                Output Shape              Param #   
=================================================================
 dense_36 (Dense)            (None, 30)                270       
                                                                 
 dense_37 (Dense)            (None, 80)                2480      
                                                                 
 dense_38 (Dense)            (None, 60)                4860      
                                                                 
 dense_39 (Dense)            (None, 80)                4880      
                                                                 
 dense_40 (Dense)            (None, 30)                2430      
                                                                 
 dense_41 (Dense)            (None, 3)                 93        
                                                                 
=================================================================
Total params: 15013 (58.64 KB)
Trainable params: 15013 (58.64 KB)
Non-trainable params: 0 (0.00 Byte)
_________________________________________________________________

Layer: dense_36, Activation: tanh
Layer: dense_37, Activation: tanh
Layer: dense_38, Activation: tanh
…
