Model ID: 354

Model: "sequential_7"
_________________________________________________________________
 Layer (type)                Output Shape              Param #   
=================================================================
 dense_42 (Dense)            (None, 30)                270       
                                                                 
 dense_43 (Dense)            (None, 80)                2480      
                                                                 
 dense_44 (Dense)            (None, 60)                4860      
                                                                 
 dense_45 (Dense)            (None, 80)                4880      
                                                                 
 dense_46 (Dense)            (None, 30)                2430      
                                                                 
 dense_47 (Dense)            (None, 3)                 93        
                                                                 
=================================================================
Total params: 15013 (58.64 KB)
Trainable params: 15013 (58.64 KB)
Non-trainable params: 0 (0.00 Byte)
_________________________________________________________________

Layer: dense_42, Activation: tanh
Layer: dense_43, Activation: tanh
Layer: dense_44, Activation: tanh
…
