Model ID: 355

Model: "sequential_8"
_________________________________________________________________
 Layer (type)                Output Shape              Param #   
=================================================================
 dense_48 (Dense)            (None, 30)                270       
                                                                 
 dense_49 (Dense)            (None, 80)                2480      
                                                                 
 dense_50 (Dense)            (None, 60)                4860      
                                                                 
 dense_51 (Dense)            (None, 80)                4880      
                                                                 
 dense_52 (Dense)            (None, 30)                2430      
                                                                 
 dense_53 (Dense)            (None, 3)                 93        
                                                                 
=================================================================
Total params: 15013 (58.64 KB)
Trainable params: 15013 (58.64 KB)
Non-trainable params: 0 (0.00 Byte)
_________________________________________________________________

Layer: dense_48, Activation: sigmoid
Layer: dense_49, Activation: sigmoid
Layer: dense_50, Activation: sigmoid
…
