Model ID: 356

Model: "sequential"
_________________________________________________________________
 Layer (type)                Output Shape              Param #   
=================================================================
 dense (Dense)               (None, 30)                270       
                                                                 
 dense_1 (Dense)             (None, 80)                2480      
                                                                 
 dense_2 (Dense)             (None, 60)                4860      
                                                                 
 dense_3 (Dense)             (None, 80)                4880      
                                                                 
 dense_4 (Dense)             (None, 30)                2430      
                                                                 
 dense_5 (Dense)             (None, 3)                 93        
                                                                 
=================================================================
Total params: 15013 (58.64 KB)
Trainable params: 15013 (58.64 KB)
Non-trainable params: 0 (0.00 Byte)
_________________________________________________________________

Layer: dense, Activation: tanh
Layer: dense_1, Activation: tanh
Layer: dense_2, Activation: tanh
…
