Model ID: 360

Model: "sequential_3"
_________________________________________________________________
 Layer (type)                Output Shape              Param #   
=================================================================
 dense_18 (Dense)            (None, 30)                270       
                                                                 
 dense_19 (Dense)            (None, 80)                2480      
                                                                 
 dense_20 (Dense)            (None, 60)                4860      
                                                                 
 dense_21 (Dense)            (None, 80)                4880      
                                                                 
 dense_22 (Dense)            (None, 30)                2430      
                                                                 
 dense_23 (Dense)            (None, 3)                 93        
                                                                 
=================================================================
Total params: 15013 (58.64 KB)
Trainable params: 15013 (58.64 KB)
Non-trainable params: 0 (0.00 Byte)
_________________________________________________________________

Layer: dense_18, Activation: tanh
Layer: dense_19, Activation: tanh
Layer: dense_20, Activation: tanh
…
