Model ID: 361

Model: "sequential_4"
_________________________________________________________________
 Layer (type)                Output Shape              Param #   
=================================================================
 dense_24 (Dense)            (None, 30)                270       
                                                                 
 dense_25 (Dense)            (None, 80)                2480      
                                                                 
 dense_26 (Dense)            (None, 60)                4860      
                                                                 
 dense_27 (Dense)            (None, 80)                4880      
                                                                 
 dense_28 (Dense)            (None, 30)                2430      
                                                                 
 dense_29 (Dense)            (None, 3)                 93        
                                                                 
=================================================================
Total params: 15013 (58.64 KB)
Trainable params: 15013 (58.64 KB)
Non-trainable params: 0 (0.00 Byte)
_________________________________________________________________

Layer: dense_24, Activation: relu
Layer: dense_25, Activation: relu
Layer: dense_26, Activation: relu
…
