Model ID: 366

Model: "sequential_9"
_________________________________________________________________
 Layer (type)                Output Shape              Param #   
=================================================================
 dense_54 (Dense)            (None, 30)                270       
                                                                 
 dense_55 (Dense)            (None, 80)                2480      
                                                                 
 dense_56 (Dense)            (None, 60)                4860      
                                                                 
 dense_57 (Dense)            (None, 80)                4880      
                                                                 
 dense_58 (Dense)            (None, 30)                2430      
                                                                 
 dense_59 (Dense)            (None, 3)                 93        
                                                                 
=================================================================
Total params: 15013 (58.64 KB)
Trainable params: 15013 (58.64 KB)
Non-trainable params: 0 (0.00 Byte)
_________________________________________________________________

Layer: dense_54, Activation: tanh
Layer: dense_55, Activation: tanh
Layer: dense_56, Activation: tanh
…
