Model ID: 372

Model: "sequential_15"
_________________________________________________________________
 Layer (type)                Output Shape              Param #   
=================================================================
 dense_90 (Dense)            (None, 30)                270       
                                                                 
 dense_91 (Dense)            (None, 80)                2480      
                                                                 
 dense_92 (Dense)            (None, 60)                4860      
                                                                 
 dense_93 (Dense)            (None, 80)                4880      
                                                                 
 dense_94 (Dense)            (None, 30)                2430      
                                                                 
 dense_95 (Dense)            (None, 3)                 93        
                                                                 
=================================================================
Total params: 15013 (58.64 KB)
Trainable params: 15013 (58.64 KB)
Non-trainable params: 0 (0.00 Byte)
_________________________________________________________________

Layer: dense_90, Activation: tanh
Layer: dense_91, Activation: tanh
Layer: dense_92, Activation: tanh
…
