Model ID: 375

Model: "sequential_18"
_________________________________________________________________
 Layer (type)                Output Shape              Param #   
=================================================================
 dense_108 (Dense)           (None, 30)                270       
                                                                 
 dense_109 (Dense)           (None, 80)                2480      
                                                                 
 dense_110 (Dense)           (None, 60)                4860      
                                                                 
 dense_111 (Dense)           (None, 80)                4880      
                                                                 
 dense_112 (Dense)           (None, 30)                2430      
                                                                 
 dense_113 (Dense)           (None, 3)                 93        
                                                                 
=================================================================
Total params: 15013 (58.64 KB)
Trainable params: 15013 (58.64 KB)
Non-trainable params: 0 (0.00 Byte)
_________________________________________________________________

Layer: dense_108, Activation: relu
Layer: dense_109, Activation: relu
Layer: dense_110, Activation: relu
…
