Model ID: 376

Model: "sequential_19"
_________________________________________________________________
 Layer (type)                Output Shape              Param #   
=================================================================
 dense_114 (Dense)           (None, 30)                270       
                                                                 
 dense_115 (Dense)           (None, 80)                2480      
                                                                 
 dense_116 (Dense)           (None, 60)                4860      
                                                                 
 dense_117 (Dense)           (None, 80)                4880      
                                                                 
 dense_118 (Dense)           (None, 30)                2430      
                                                                 
 dense_119 (Dense)           (None, 3)                 93        
                                                                 
=================================================================
Total params: 15013 (58.64 KB)
Trainable params: 15013 (58.64 KB)
Non-trainable params: 0 (0.00 Byte)
_________________________________________________________________

Layer: dense_114, Activation: tanh
Layer: dense_115, Activation: tanh
Layer: dense_116, Activation: tanh
…
