Model ID: 379

Model: "sequential_22"
_________________________________________________________________
 Layer (type)                Output Shape              Param #   
=================================================================
 dense_132 (Dense)           (None, 30)                270       
                                                                 
 dense_133 (Dense)           (None, 80)                2480      
                                                                 
 dense_134 (Dense)           (None, 60)                4860      
                                                                 
 dense_135 (Dense)           (None, 80)                4880      
                                                                 
 dense_136 (Dense)           (None, 30)                2430      
                                                                 
 dense_137 (Dense)           (None, 3)                 93        
                                                                 
=================================================================
Total params: 15013 (58.64 KB)
Trainable params: 15013 (58.64 KB)
Non-trainable params: 0 (0.00 Byte)
_________________________________________________________________

Layer: dense_132, Activation: relu
Layer: dense_133, Activation: relu
Layer: dense_134, Activation: relu
…
