Model ID: 381

Model: "sequential_24"
_________________________________________________________________
 Layer (type)                Output Shape              Param #   
=================================================================
 dense_144 (Dense)           (None, 30)                270       
                                                                 
 dense_145 (Dense)           (None, 80)                2480      
                                                                 
 dense_146 (Dense)           (None, 60)                4860      
                                                                 
 dense_147 (Dense)           (None, 80)                4880      
                                                                 
 dense_148 (Dense)           (None, 30)                2430      
                                                                 
 dense_149 (Dense)           (None, 3)                 93        
                                                                 
=================================================================
Total params: 15013 (58.64 KB)
Trainable params: 15013 (58.64 KB)
Non-trainable params: 0 (0.00 Byte)
_________________________________________________________________

Layer: dense_144, Activation: relu
Layer: dense_145, Activation: relu
Layer: dense_146, Activation: relu
…
