Model ID: 53

Model: "sequential_50"
_________________________________________________________________
 Layer (type)                Output Shape              Param #   
=================================================================
 dense_300 (Dense)           (None, 60)                540       
                                                                 
 dense_301 (Dense)           (None, 80)                4880      
                                                                 
 dense_302 (Dense)           (None, 80)                6480      
                                                                 
 dense_303 (Dense)           (None, 60)                4860      
                                                                 
 dense_304 (Dense)           (None, 30)                1830      
                                                                 
 dense_305 (Dense)           (None, 3)                 93        
                                                                 
=================================================================
Total params: 18683 (72.98 KB)
Trainable params: 18683 (72.98 KB)
Non-trainable params: 0 (0.00 Byte)
_________________________________________________________________

Layer: dense_300, Activation: swish
Layer: dense_301, Activation: swish
Layer: dense_302, Activation: swish
…
