Model ID: 546

Model: "sequential_164"
_________________________________________________________________
 Layer (type)                Output Shape              Param #   
=================================================================
 dense_984 (Dense)           (None, 60)                540       
                                                                 
 dense_985 (Dense)           (None, 80)                4880      
                                                                 
 dense_986 (Dense)           (None, 80)                6480      
                                                                 
 dense_987 (Dense)           (None, 60)                4860      
                                                                 
 dense_988 (Dense)           (None, 30)                1830      
                                                                 
 dense_989 (Dense)           (None, 3)                 93        
                                                                 
=================================================================
Total params: 18683 (72.98 KB)
Trainable params: 18683 (72.98 KB)
Non-trainable params: 0 (0.00 Byte)
_________________________________________________________________

Layer: dense_984, Activation: tanh
Layer: dense_985, Activation: tanh
Layer: dense_986, Activation: tanh
…
