Model ID: 57

Model: "sequential_54"
_________________________________________________________________
 Layer (type)                Output Shape              Param #   
=================================================================
 dense_324 (Dense)           (None, 60)                540       
                                                                 
 dense_325 (Dense)           (None, 80)                4880      
                                                                 
 dense_326 (Dense)           (None, 80)                6480      
                                                                 
 dense_327 (Dense)           (None, 60)                4860      
                                                                 
 dense_328 (Dense)           (None, 30)                1830      
                                                                 
 dense_329 (Dense)           (None, 3)                 93        
                                                                 
=================================================================
Total params: 18683 (72.98 KB)
Trainable params: 18683 (72.98 KB)
Non-trainable params: 0 (0.00 Byte)
_________________________________________________________________

Layer: dense_324, Activation: relu
Layer: dense_325, Activation: relu
Layer: dense_326, Activation: relu
…
