Model ID: 63

Model: "sequential_60"
_________________________________________________________________
 Layer (type)                Output Shape              Param #   
=================================================================
 dense_360 (Dense)           (None, 60)                540       
                                                                 
 dense_361 (Dense)           (None, 80)                4880      
                                                                 
 dense_362 (Dense)           (None, 80)                6480      
                                                                 
 dense_363 (Dense)           (None, 60)                4860      
                                                                 
 dense_364 (Dense)           (None, 30)                1830      
                                                                 
 dense_365 (Dense)           (None, 3)                 93        
                                                                 
=================================================================
Total params: 18683 (72.98 KB)
Trainable params: 18683 (72.98 KB)
Non-trainable params: 0 (0.00 Byte)
_________________________________________________________________

Layer: dense_360, Activation: hard_sigmoid
Layer: dense_361, Activation: hard_sigmoid
Layer: dense_362, Activation: hard_sigmoid
…
