Model ID: 640

Model: "sequential_115"
_________________________________________________________________
 Layer (type)                Output Shape              Param #   
=================================================================
 dense_690 (Dense)           (None, 60)                540       
                                                                 
 dense_691 (Dense)           (None, 80)                4880      
                                                                 
 dense_692 (Dense)           (None, 80)                6480      
                                                                 
 dense_693 (Dense)           (None, 60)                4860      
                                                                 
 dense_694 (Dense)           (None, 30)                1830      
                                                                 
 dense_695 (Dense)           (None, 3)                 93        
                                                                 
=================================================================
Total params: 18683 (72.98 KB)
Trainable params: 18683 (72.98 KB)
Non-trainable params: 0 (0.00 Byte)
_________________________________________________________________

Layer: dense_690, Activation: tanh
Layer: dense_691, Activation: tanh
Layer: dense_692, Activation: tanh
…
