Model ID: 64

Model: "sequential_61"
_________________________________________________________________
 Layer (type)                Output Shape              Param #   
=================================================================
 dense_366 (Dense)           (None, 60)                540       
                                                                 
 dense_367 (Dense)           (None, 80)                4880      
                                                                 
 dense_368 (Dense)           (None, 80)                6480      
                                                                 
 dense_369 (Dense)           (None, 60)                4860      
                                                                 
 dense_370 (Dense)           (None, 30)                1830      
                                                                 
 dense_371 (Dense)           (None, 3)                 93        
                                                                 
=================================================================
Total params: 18683 (72.98 KB)
Trainable params: 18683 (72.98 KB)
Non-trainable params: 0 (0.00 Byte)
_________________________________________________________________

Layer: dense_366, Activation: gelu
Layer: dense_367, Activation: gelu
Layer: dense_368, Activation: gelu
…
