Model ID: 65

Model: "sequential_62"
_________________________________________________________________
 Layer (type)                Output Shape              Param #   
=================================================================
 dense_372 (Dense)           (None, 60)                540       
                                                                 
 dense_373 (Dense)           (None, 80)                4880      
                                                                 
 dense_374 (Dense)           (None, 80)                6480      
                                                                 
 dense_375 (Dense)           (None, 60)                4860      
                                                                 
 dense_376 (Dense)           (None, 30)                1830      
                                                                 
 dense_377 (Dense)           (None, 3)                 93        
                                                                 
=================================================================
Total params: 18683 (72.98 KB)
Trainable params: 18683 (72.98 KB)
Non-trainable params: 0 (0.00 Byte)
_________________________________________________________________

Layer: dense_372, Activation: elu
Layer: dense_373, Activation: elu
Layer: dense_374, Activation: elu
…
