Model ID: 67

Model: "sequential_64"
_________________________________________________________________
 Layer (type)                Output Shape              Param #   
=================================================================
 dense_384 (Dense)           (None, 60)                540       
                                                                 
 dense_385 (Dense)           (None, 80)                4880      
                                                                 
 dense_386 (Dense)           (None, 80)                6480      
                                                                 
 dense_387 (Dense)           (None, 60)                4860      
                                                                 
 dense_388 (Dense)           (None, 30)                1830      
                                                                 
 dense_389 (Dense)           (None, 3)                 93        
                                                                 
=================================================================
Total params: 18683 (72.98 KB)
Trainable params: 18683 (72.98 KB)
Non-trainable params: 0 (0.00 Byte)
_________________________________________________________________

Layer: dense_384, Activation: selu
Layer: dense_385, Activation: selu
Layer: dense_386, Activation: selu
…
