Model ID: 73

Model: "sequential_70"
_________________________________________________________________
 Layer (type)                Output Shape              Param #   
=================================================================
 dense_420 (Dense)           (None, 60)                540       
                                                                 
 dense_421 (Dense)           (None, 80)                4880      
                                                                 
 dense_422 (Dense)           (None, 80)                6480      
                                                                 
 dense_423 (Dense)           (None, 60)                4860      
                                                                 
 dense_424 (Dense)           (None, 30)                1830      
                                                                 
 dense_425 (Dense)           (None, 3)                 93        
                                                                 
=================================================================
Total params: 18683 (72.98 KB)
Trainable params: 18683 (72.98 KB)
Non-trainable params: 0 (0.00 Byte)
_________________________________________________________________

Layer: dense_420, Activation: gelu
Layer: dense_421, Activation: gelu
Layer: dense_422, Activation: gelu
…
