Model ID: 76

Model: "sequential_73"
_________________________________________________________________
 Layer (type)                Output Shape              Param #   
=================================================================
 dense_438 (Dense)           (None, 60)                540       
                                                                 
 dense_439 (Dense)           (None, 80)                4880      
                                                                 
 dense_440 (Dense)           (None, 80)                6480      
                                                                 
 dense_441 (Dense)           (None, 60)                4860      
                                                                 
 dense_442 (Dense)           (None, 30)                1830      
                                                                 
 dense_443 (Dense)           (None, 3)                 93        
                                                                 
=================================================================
Total params: 18683 (72.98 KB)
Trainable params: 18683 (72.98 KB)
Non-trainable params: 0 (0.00 Byte)
_________________________________________________________________

Layer: dense_438, Activation: selu
Layer: dense_439, Activation: selu
Layer: dense_440, Activation: selu
…
