Model ID: 77

Model: "sequential_74"
_________________________________________________________________
 Layer (type)                Output Shape              Param #   
=================================================================
 dense_444 (Dense)           (None, 60)                540       
                                                                 
 dense_445 (Dense)           (None, 80)                4880      
                                                                 
 dense_446 (Dense)           (None, 80)                6480      
                                                                 
 dense_447 (Dense)           (None, 60)                4860      
                                                                 
 dense_448 (Dense)           (None, 30)                1830      
                                                                 
 dense_449 (Dense)           (None, 3)                 93        
                                                                 
=================================================================
Total params: 18683 (72.98 KB)
Trainable params: 18683 (72.98 KB)
Non-trainable params: 0 (0.00 Byte)
_________________________________________________________________

Layer: dense_444, Activation: tanh
Layer: dense_445, Activation: tanh
Layer: dense_446, Activation: tanh
…
