Model ID: 78

Model: "sequential_75"
_________________________________________________________________
 Layer (type)                Output Shape              Param #   
=================================================================
 dense_450 (Dense)           (None, 60)                540       
                                                                 
 dense_451 (Dense)           (None, 80)                4880      
                                                                 
 dense_452 (Dense)           (None, 80)                6480      
                                                                 
 dense_453 (Dense)           (None, 60)                4860      
                                                                 
 dense_454 (Dense)           (None, 30)                1830      
                                                                 
 dense_455 (Dense)           (None, 3)                 93        
                                                                 
=================================================================
Total params: 18683 (72.98 KB)
Trainable params: 18683 (72.98 KB)
Non-trainable params: 0 (0.00 Byte)
_________________________________________________________________

Layer: dense_450, Activation: sigmoid
Layer: dense_451, Activation: sigmoid
Layer: dense_452, Activation: sigmoid
…
