Model ID: 81

Model: "sequential_78"
_________________________________________________________________
 Layer (type)                Output Shape              Param #   
=================================================================
 dense_468 (Dense)           (None, 60)                540       
                                                                 
 dense_469 (Dense)           (None, 80)                4880      
                                                                 
 dense_470 (Dense)           (None, 80)                6480      
                                                                 
 dense_471 (Dense)           (None, 60)                4860      
                                                                 
 dense_472 (Dense)           (None, 30)                1830      
                                                                 
 dense_473 (Dense)           (None, 3)                 93        
                                                                 
=================================================================
Total params: 18683 (72.98 KB)
Trainable params: 18683 (72.98 KB)
Non-trainable params: 0 (0.00 Byte)
_________________________________________________________________

Layer: dense_468, Activation: hard_sigmoid
Layer: dense_469, Activation: hard_sigmoid
Layer: dense_470, Activation: hard_sigmoid
…
