Model ID: 82

Model: "sequential_79"
_________________________________________________________________
 Layer (type)                Output Shape              Param #   
=================================================================
 dense_474 (Dense)           (None, 60)                540       
                                                                 
 dense_475 (Dense)           (None, 80)                4880      
                                                                 
 dense_476 (Dense)           (None, 80)                6480      
                                                                 
 dense_477 (Dense)           (None, 60)                4860      
                                                                 
 dense_478 (Dense)           (None, 30)                1830      
                                                                 
 dense_479 (Dense)           (None, 3)                 93        
                                                                 
=================================================================
Total params: 18683 (72.98 KB)
Trainable params: 18683 (72.98 KB)
Non-trainable params: 0 (0.00 Byte)
_________________________________________________________________

Layer: dense_474, Activation: gelu
Layer: dense_475, Activation: gelu
Layer: dense_476, Activation: gelu
…
