Model ID: 83

Model: "sequential_80"
_________________________________________________________________
 Layer (type)                Output Shape              Param #   
=================================================================
 dense_480 (Dense)           (None, 60)                540       
                                                                 
 dense_481 (Dense)           (None, 80)                4880      
                                                                 
 dense_482 (Dense)           (None, 80)                6480      
                                                                 
 dense_483 (Dense)           (None, 60)                4860      
                                                                 
 dense_484 (Dense)           (None, 30)                1830      
                                                                 
 dense_485 (Dense)           (None, 3)                 93        
                                                                 
=================================================================
Total params: 18683 (72.98 KB)
Trainable params: 18683 (72.98 KB)
Non-trainable params: 0 (0.00 Byte)
_________________________________________________________________

Layer: dense_480, Activation: elu
Layer: dense_481, Activation: elu
Layer: dense_482, Activation: elu
…
