Model ID: 85

Model: "sequential_82"
_________________________________________________________________
 Layer (type)                Output Shape              Param #   
=================================================================
 dense_492 (Dense)           (None, 60)                540       
                                                                 
 dense_493 (Dense)           (None, 80)                4880      
                                                                 
 dense_494 (Dense)           (None, 80)                6480      
                                                                 
 dense_495 (Dense)           (None, 60)                4860      
                                                                 
 dense_496 (Dense)           (None, 30)                1830      
                                                                 
 dense_497 (Dense)           (None, 3)                 93        
                                                                 
=================================================================
Total params: 18683 (72.98 KB)
Trainable params: 18683 (72.98 KB)
Non-trainable params: 0 (0.00 Byte)
_________________________________________________________________

Layer: dense_492, Activation: selu
Layer: dense_493, Activation: selu
Layer: dense_494, Activation: selu
…
