Model ID: 87

Model: "sequential_84"
_________________________________________________________________
 Layer (type)                Output Shape              Param #   
=================================================================
 dense_504 (Dense)           (None, 60)                540       
                                                                 
 dense_505 (Dense)           (None, 80)                4880      
                                                                 
 dense_506 (Dense)           (None, 80)                6480      
                                                                 
 dense_507 (Dense)           (None, 60)                4860      
                                                                 
 dense_508 (Dense)           (None, 30)                1830      
                                                                 
 dense_509 (Dense)           (None, 3)                 93        
                                                                 
=================================================================
Total params: 18683 (72.98 KB)
Trainable params: 18683 (72.98 KB)
Non-trainable params: 0 (0.00 Byte)
_________________________________________________________________

Layer: dense_504, Activation: sigmoid
Layer: dense_505, Activation: sigmoid
Layer: dense_506, Activation: sigmoid
…
