Model ID: 88

Model: "sequential_85"
_________________________________________________________________
 Layer (type)                Output Shape              Param #   
=================================================================
 dense_510 (Dense)           (None, 60)                540       
                                                                 
 dense_511 (Dense)           (None, 80)                4880      
                                                                 
 dense_512 (Dense)           (None, 80)                6480      
                                                                 
 dense_513 (Dense)           (None, 60)                4860      
                                                                 
 dense_514 (Dense)           (None, 30)                1830      
                                                                 
 dense_515 (Dense)           (None, 3)                 93        
                                                                 
=================================================================
Total params: 18683 (72.98 KB)
Trainable params: 18683 (72.98 KB)
Non-trainable params: 0 (0.00 Byte)
_________________________________________________________________

Layer: dense_510, Activation: softmax
Layer: dense_511, Activation: softmax
Layer: dense_512, Activation: softmax
…
