Model ID: 89

Model: "sequential_86"
_________________________________________________________________
 Layer (type)                Output Shape              Param #   
=================================================================
 dense_516 (Dense)           (None, 60)                540       
                                                                 
 dense_517 (Dense)           (None, 80)                4880      
                                                                 
 dense_518 (Dense)           (None, 80)                6480      
                                                                 
 dense_519 (Dense)           (None, 60)                4860      
                                                                 
 dense_520 (Dense)           (None, 30)                1830      
                                                                 
 dense_521 (Dense)           (None, 3)                 93        
                                                                 
=================================================================
Total params: 18683 (72.98 KB)
Trainable params: 18683 (72.98 KB)
Non-trainable params: 0 (0.00 Byte)
_________________________________________________________________

Layer: dense_516, Activation: swish
Layer: dense_517, Activation: swish
Layer: dense_518, Activation: swish
…
