Model ID: 93

Model: "sequential_3"
_________________________________________________________________
 Layer (type)                Output Shape              Param #   
=================================================================
 dense_18 (Dense)            (None, 60)                540       
                                                                 
 dense_19 (Dense)            (None, 80)                4880      
                                                                 
 dense_20 (Dense)            (None, 80)                6480      
                                                                 
 dense_21 (Dense)            (None, 60)                4860      
                                                                 
 dense_22 (Dense)            (None, 30)                1830      
                                                                 
 dense_23 (Dense)            (None, 3)                 93        
                                                                 
=================================================================
Total params: 18683 (72.98 KB)
Trainable params: 18683 (72.98 KB)
Non-trainable params: 0 (0.00 Byte)
_________________________________________________________________

Layer: dense_18, Activation: hard_sigmoid
Layer: dense_19, Activation: hard_sigmoid
Layer: dense_20, Activation: hard_sigmoid
…
