Model ID: 95

Model: "sequential_1"
_________________________________________________________________
 Layer (type)                Output Shape              Param #   
=================================================================
 dense_6 (Dense)             (None, 60)                540       
                                                                 
 dense_7 (Dense)             (None, 80)                4880      
                                                                 
 dense_8 (Dense)             (None, 80)                6480      
                                                                 
 dense_9 (Dense)             (None, 60)                4860      
                                                                 
 dense_10 (Dense)            (None, 30)                1830      
                                                                 
 dense_11 (Dense)            (None, 3)                 93        
                                                                 
=================================================================
Total params: 18683 (72.98 KB)
Trainable params: 18683 (72.98 KB)
Non-trainable params: 0 (0.00 Byte)
_________________________________________________________________

Layer: dense_6, Activation: selu
Layer: dense_7, Activation: selu
Layer: dense_8, Activation: selu
…
